MLOps/Module2-Model_Serving/containerize_flask_and_model/api/model/artifacts/state_dict.pt (torch_old, 5645 bytes, 6 tensors)

fc1.weight f4 [30, 4]
0	0x3f7b7cfe	0.982376
1	0xbe7cfd89	-0.24706091
2	0xbf873afa	-1.0564873
3	0xbf9163c1	-1.1358567
4	0x3d84a86f	0.06477439
5	0xbf53b4eb	-0.82697934
6	0xbe88d75f	-0.26726815
7	0x3eaa542d	0.33267346
8	0xbec12189	-0.37720898
9	0xbf40eb3d	-0.75358945
10	0x3f872b39	1.0560066
11	0x3e969418	0.29409862
12	0x3e12c490	0.14332795
13	0x3f6355ab	0.88802594
14	0xbf55c79d	-0.8350771
15	0xbf2df6a4	-0.6795447
16	0x3f17d007	0.593018
17	0xbea8419e	-0.32862562
18	0xbf1e8834	-0.6192658
19	0xbf828da8	-1.019948
20	0xbe00c914	-0.12576705
21	0x3f82dad0	1.0223026
22	0xbf36e391	-0.7144099
23	0xbf10585b	-0.5638482
24	0x3e901b5e	0.2814588
25	0x3f0b325f	0.54373735
26	0xbf67ed69	-0.90596634
27	0xbee6a867	-0.45050356
28	0xbd338436	-0.043827258
29	0xbf7098df	-0.9398326
30	0x3f416fb4	0.7556107
31	0x3f6ef59c	0.9334352
32	0x3f1ebbd3	0.62005347
33	0x3c91cc4d	0.017797614
34	0xbf6c3d93	-0.92281455
35	0xbf8ccaf5	-1.0999438
36	0xbe313664	-0.17305905
37	0xbeff9228	-0.49916196
38	0x3f3d9ceb	0.7406756
39	0x3f29d675	0.6634286
40	0x3ed00795	0.40630785
41	0x3dbb9d10	0.09160817
42	0xbf3cbe78	-0.7372813
43	0xbf5061da	-0.8139931
44	0x3e55793d	0.2084703
45	0x3f22615e	0.6342982
46	0xbf5e12c3	-0.8674738
47	0xbec231da	-0.3792866
48	0x3ec4f7ae	0.38470215
49	0xbf201c2a	-0.62542975
50	0xbe8eec36	-0.2791459
51	0xbf8b29e4	-1.0872159
52	0xbecb19b4	-0.39668047
53	0xbf30ccce	-0.6906251
54	0x3f89dba2	1.0770152
55	0x3e6b0195	0.22949822
56	0x3f407b8d	0.75188524
57	0x3cd36b6f	0.025808064
58	0xbf840aa4	-1.0315747
59	0xbf930dc1	-1.1488572
60	0xbda473dc	-0.08029911
61	0xbf6d398d	-0.9266594
62	0x3f5708b4	0.83997655
63	0x3f47c1db	0.78030175
64	0xbef7794c	-0.4833473
65	0xbee5b9a1	-0.44868186
66	0x3f7f444a	0.99713576
67	0x3f013715	0.50474674
68	0xbebadbb0	-0.36495733
69	0x3ebff086	0.37488192
70	0xbee3d40d	-0.4449772
71	0x3e802f25	0.25035968
72	0x3e9c3aec	0.30513704
73	0x3f4f11e8	0.808867
74	0xbf7bb8fe	-0.9832915
75	0xbf24cf94	-0.6437924
76	0x3e6b27dc	0.22964424
77	0xbf86cc4c	-1.0531096
78	0xbe6baeb3	-0.23015861
79	0x3e0b0770	0.13577056
80	0xbefb9070	-0.49133635
81	0xbea188ed	-0.3154978
82	0x3f40d50c	0.75325084
83	0x3f93b8a9	1.1540729
84	0x3d1b2f53	0.03788693
85	0x3f9412b9	1.1568214
86	0xbf66931a	-0.9006821
87	0xbee7c2c3	-0.4526578
88	0x3f1a2c31	0.6022368
89	0x3db9a74a	0.09065111
90	0xbf5124eb	-0.8169696
91	0xbf6fbb1c	-0.9364488
92	0x3ef1f4ed	0.47257176
93	0x3eaf723d	0.34266844
94	0xbf77f7b6	-0.9686235
95	0xbeea9466	-0.45816344
96	0xbeeb6e6c	-0.45982683
97	0xbf1ce670	-0.6128912
98	0x3f889fb8	1.0673742
99	0x3eeb83d1	0.45999005
100	0x3ef050f1	0.46936753
101	0x3e918770	0.28423643
102	0xbf4cfca9	-0.8007303
103	0xbf81296f	-1.009077
104	0x3e8bb478	0.27286124
105	0xbf962f4a	-1.1733181
106	0x3f0f98bf	0.5609245
107	0x3f29a7f8	0.66271925
108	0x3ee1e80a	0.44122344
109	0x3efc2c0f	0.49252364
110	0xbf81300c	-1.0092788
111	0xbf1cf13a	-0.6130558
112	0x3e2a45b8	0.16628158
113	0x3f902786	1.1262062
114	0xbf9462a3	-1.1592602
115	0xbe5c6436	-0.21522602
116	0xbe89abb2	-0.26888806
117	0xbf1ad459	-0.60480267
118	0x3f42304e	0.7585496
119	0x3f6ca44e	0.9243821

fc1.bias f4 [30]
0	0x3f10026c	0.56253695
1	0x3f85a110	1.0439777
2	0xbdbe6d28	-0.09298164
3	0x3ee86a13	0.45393428
4	0x3f276703	0.6539156
5	0x3f4ef9bd	0.8084982
6	0x3f36eaaa	0.7145182
7	0xbf51dbd8	-0.8197608
8	0x3fbf02b1	1.4922696
9	0xbf910752	-1.1330359
10	0x3f85a39a	1.0440552
11	0x3f0b2c78	0.5436473
12	0x3f81ef0e	1.0151079
13	0xbe4da641	-0.20082952
14	0x3fa33dcd	1.2753235
15	0xbf8de756	-1.1086223
16	0xbf124063	-0.57129496
17	0xbe39775e	-0.18111941
18	0x3f0fd1ad	0.56179315
19	0x3f546c81	0.82978064
20	0xbee0aa99	-0.43880156
21	0x3e7f3f50	0.24926496
22	0x3e99405f	0.29931924
23	0x3f295e64	0.66159654
24	0xbf04129a	-0.51590884
25	0x3f3d6155	0.7397664
26	0xbf2b20f6	-0.6684717
27	0x3f6f3367	0.9343781
28	0x3f172a65	0.59049064
29	0xbf1f0711	-0.6212016

fc2.weight f4 [30, 30]
0	0x3fed9b50	1.8563023
1	0x3f5fb54e	0.87386024
2	0xbf3d0ea4	-0.73850465
3	0x3fb7350a	1.4313061
4	0x3fc04616	1.5021389
5	0x3f4f0fc4	0.8088343
6	0x3f1886dc	0.5958078
7	0xbe16826a	-0.14698187
8	0x3fbdc652	1.4826148
9	0xbf0ec439	-0.5576816
10	0x3fbded71	1.4838086
11	0x3fbb3d34	1.4628053
12	0x3f1ef900	0.62098694
13	0xbf34ff0f	-0.7070169
14	0x3fd66cbf	1.6751937
15	0xbf319999	-0.69374996
16	0xbf829e87	-1.0204629
17	0x3d9ea60e	0.07746516
18	0x3fb11e5e	1.3837392
19	0x3ead826c	0.33888566
20	0xbf7f413b	-0.9970891
21	0x3fb14c7f	1.385147
22	0x3f557d58	0.83394384
23	0x3fcc5e12	1.5966208
24	0xbeee4901	-0.46540073
25	0x3fa58f62	1.2934382
26	0xbefde38c	-0.49587667
27	0x3fa8e0bb	1.3193582
28	0x3fe0a0e4	1.75491
29	0xbf6ebaf4	-0.9325402
30	0x3fc028cf	1.5012454
31	0x3f120bef	0.5704946
32	0xbf490986	-0.78530157
33	0x3fa37180	1.2769012
34	0x3faf0401	1.3673097
35	0x3eea265d	0.45732394
36	0x3edd2e42	0.43199354
37	0xbeb9ecf4	-0.36313593
38	0x3fa3cdda	1.2797196
39	0xbf102149	-0.5630079
40	0x3fcb2207	1.5869759
41	0x3fb53718	1.4157438
42	0xbbea5533	-0.00715127
43	0xbf2001d4	-0.6250279
44	0x3f9b40c9	1.2129146
45	0xbf0074af	-0.50178045
46	0xbf265673	-0.6497566
47	0x3e5c05ed	0.21486636
48	0x3f72ea70	0.94888973
49	0x3ebcab19	0.36849287
50	0xbedaa819	-0.42706373
51	0x3f8ff925	1.1247908
52	0x3f23bf1b	0.6396348
53	0x3fbc9404	1.4732671
54	0xbeb8c622	-0.36088663
55	0x3f526062	0.8217832
56	0xbebd5381	-0.3697777
57	0x3f1707f9	0.5899654
58	0x3fa26f28	1.2690172
59	0xbf0fda97	-0.56192917
60	0x3fc83908	1.5642405
61	0x3f4c1ade	0.79728496
62	0xbf2f77ce	-0.6854218
63	0x3f9c3e21	1.220646
64	0x3fa647cd	1.2990662
65	0x3f370ea3	0.7150671
66	0x3f3dfb62	0.74211705
67	0xbe270fa5	-0.16314562
68	0x3fdbf28a	1.7183392
69	0xbf28de72	-0.65964425
70	0x3fd97caa	1.699117
71	0x3fbf22d0	1.4932499
72	0x3e7aad6d	0.24480219
73	0xbf195aa9	-0.5990396
74	0x3fb0d064	1.3813596
75	0xbf755474	-0.9583199
76	0xbf49def0	-0.788558
77	0x3d52758a	0.051381625
78	0x3fa4c1c0	1.2871628
79	0x3ebdf1c4	0.37098515
80	0xbf6ff518	-0.9373336
81	0x3fb8e01d	1.4443394
82	0x3f4b0ebe	0.7931937
83	0x3fbab6c6	1.4587028
84	0xbeeee5a0	-0.46659565
85	0x3f920604	1.1408086
86	0xbebad9d7	-0.36494324
87	0x3f990612	1.1954978
88	0x3fb582d8	1.4180555
89	0xbf4e9847	-0.80701107
90	0xbfde2854	-1.7356057
91	0xbf92a7ba	-1.1457436
92	0x3f89dc2e	1.0770319
93	0xbfaa85f3	-1.3322128
94	0xbfe28e46	-1.7699668
95	0xbf64164c	-0.8909652
96	0xbf4da993	-0.80336875
97	0x3d6fd36f	0.05855125
98	0xbfdbe4bd	-1.717918
99	0x3f27dca0	0.6557102
100	0xbfdf084b	-1.7424406
101	0xbfc261fe	-1.5186155
102	0xbf602150	-0.8755083
103	0x3f2cbee3	0.6747877
104	0xbfbbd130	-1.4673214
105	0x3f6d6241	0.9272805
106	0x3f8067bd	1.0031658
107	0xbe6fa578	-0.23402965
108	0xbfb804e6	-1.4376495
109	0xbf483bad	-0.7821606
110	0x3f6f753d	0.93538266
111	0xbfba6c87	-1.456437
112	0xbf83f780	-1.0309906
113	0xbfc4fa81	-1.5388948
114	0x3ed3a870	0.41339445
115	0xbfa11bea	-1.2586644
116	0x3f036d03	0.51338214
117	0xbf8bc9f1	-1.0921003
118	0xbfad8bf2	-1.3558333
119	0x3f84bf24	1.0370831
120	0xbfbdad8a	-1.4818585
121	0xbf7667b2	-0.96251976
122	0x3f403125	0.7507499
123	0xbfab5b32	-1.3387206
124	0xbfbbcc95	-1.4671808
125	0xbee96d90	-0.45591402
126	0xbf23638e	-0.63823783
127	0x3ebb7c0c	0.36618078
128	0xbfc5a3e1	-1.5440637
129	0x3ed0273a	0.40654927
130	0xbfc65b8d	-1.5496689
131	0xbfdbe1f1	-1.7178327
132	0xbf0b6878	-0.5445628
133	0x3f420b4a	0.75798476
134	0xbf9ed9c7	-1.241021
135	0x3f487f36	0.7831911
136	0x3f8695c5	1.0514456
137	0x3b01f83c	0.0019831797
138	0xbf9418c8	-1.1570063
139	0xbf1ab3cd	-0.60430604
140	0x3f159df2	0.5844413
141	0xbf9475c4	-1.1598439
142	0xbf2e9cc2	-0.68207943
143	0xbfbc5a54	-1.4715066
144	0x3ea07d7a	0.3134573
145	0xbf9caa33	-1.2239441
146	0x3ebb9584	0.3663751
147	0xbf525f1d	-0.8217638
148	0xbfbe44f8	-1.4864798
149	0x3f7a06a0	0.9766636
150	0xbfaa7182	-1.331589
151	0xbf46faf6	-0.77726686
152	0x3f326eca	0.697003
153	0xbf9e35c4	-1.2360158
154	0xbfa619c2	-1.2976611
155	0xbf203b82	-0.625908
156	0xbf048aa0	-0.51774025
157	0x3dd342a8	0.10315448
158	0xbfbd2b54	-1.4778848
159	0x3eab49f3	0.33454856
160	0xbfb062c6	-1.3780143
161	0xbfbf8614	-1.4962792
162	0xbee00963	-0.43757161
163	0x3f38c6df	0.72178453
164	0xbf9b1fd1	-1.2119085
165	0x3f1be38d	0.6089409
166	0x3f79eae6	0.9762405
167	0xbd02ecb5	-0.031964023
168	0xbf980cc1	-1.1878892
169	0xbeeda742	-0.4641667
170	0x3f188f7a	0.5959393
171	0xbf4c298f	-0.79750913
172	0xbf01c50f	-0.5069131
173	0xbf97bc57	-1.1854352
174	0x3f0b9287	0.5452046
175	0xbf8041c2	-1.0020068
176	0x3e9b24cf	0.3030152
177	0xbf4e6bcc	-0.80633235
178	0xbf90e658	-1.1320295
179	0x3f3b526a	0.7317263
180	0x3fd2dad6	1.6473033
181	0x3f3f0f01	0.7463227
182	0xbf3cc3a6	-0.73736036
183	0x3fb1d5d6	1.3893383
184	0x3fbc1cac	1.469625
185	0x3f21d5b3	0.63216704
186	0x3ec8d913	0.39228114
187	0xbe245674	-0.16048604
188	0x3fbd64ce	1.4796388
189	0xbf2aa58f	-0.6665887
190	0x3fc3432a	1.5254872
191	0x3fb61641	1.4225541
192	0x3ea41248	0.32045197
193	0xbf5b7058	-0.857183
194	0x3fbfe3a3	1.4991344
195	0xbf18913d	-0.59596616
196	0xbf88b4f9	-1.0680228
197	0x3dbb1f58	0.09136838
198	0x3fb066c4	1.3781362
199	0x3e195f29	0.14977707
200	0xbf095342	-0.53642666
201	0x3f9f24e9	1.2433139
202	0x3f0ff23f	0.56229013
203	0x3fcdd16c	1.6079535
204	0xbf0b8f2e	-0.5451535
205	0x3fa69602	1.3014529
206	0xbea76afa	-0.32698804
207	0x3f6d00cc	0.9257934
208	0x3fcc400d	1.5957047
209	0xbeff2e6c	-0.49840105
210	0xbe46c123	-0.19409613
211	0xbfba96c3	-1.4577259
212	0xbf731afd	-0.94963056
213	0x3f72ba20	0.94815254
214	0xbc01e9f9	-0.007929319
215	0x3e960962	0.29304034
216	0x3c961e10	0.018324882
217	0xbf32501d	-0.69653493
218	0x3b1d0101	0.0023956897
219	0xbf09aaf1	-0.5377646
220	0x3f3a9033	0.7287628
221	0x3fae7e8f	1.3632373
222	0xbe5a250f	-0.21303199
223	0xbfa3f727	-1.28098
224	0xbd9ad6e9	-0.07560522
225	0xbf65079e	-0.8946475
226	0xbf98c836	-1.19361
227	0xbdbda410	-0.09259808
228	0x3f3c8c6a	0.73651755
229	0xbf353208	-0.70779467
230	0xbf19e4cb	-0.60114735
231	0x3f6394f5	0.88899165
232	0xbe4ca7ec	-0.19985932
233	0x3eba25fc	0.36357105
234	0xbf23ff1f	-0.6406116
235	0x3e2eabf9	0.1705779
236	0xbf9e9874	-1.2390275
237	0x3cfd3daa	0.030913193
238	0x3f15b735	0.58482677
239	0xbf5b8593	-0.85750693
240	0xbfd5b340	-1.6695328
241	0xbf5bd982	-0.85878766
242	0x3f69236a	0.9106966
243	0xbfaebd65	-1.3651549
244	0xbfb98072	-1.4492323
245	0xbf2a239f	-0.66460603
246	0xbf3b4d7e	-0.7316512
247	0x3eb03354	0.3441416
248	0xbfdf4816	-1.7443874
249	0x3f008d67	0.5021576
250	0xbfcad6c7	-1.5846795
251	0xbfc3bc94	-1.5291924
252	0xbf430a92	-0.76188004
253	0x3f36504a	0.7121626
254	0xbfca965d	-1.5827137
255	0x3f58cdfe	0.8468932

fc2.bias f4 [30]
0	0xbe92f8f6	-0.28705567
1	0xbe5d6d1c	-0.21623653
2	0xbe18acc4	-0.14909655
3	0x3d9fa387	0.07794862
4	0x3c88c163	0.016693776
5	0x3c2b291a	0.010446811
6	0xbebb26b5	-0.3655297
7	0xbe9651c3	-0.29359254
8	0x3d09d869	0.03365365
9	0x3f0b7e99	0.5449005
10	0xbe32239b	-0.17396395
11	0x3f109470	0.564765
12	0x3e09ae85	0.1344548
13	0xbf2e7ce9	-0.6815935
14	0x3ee4849b	0.4463242
15	0x3ecae6ac	0.39629114
16	0xbf0ae8b5	-0.5426133
17	0x3ef46563	0.47733602
18	0xbf34c01b	-0.7060563
19	0xbe1924f1	-0.14955498
20	0x3d41f57b	0.04735325
21	0xbf012763	-0.50450724
22	0xbd3f8270	-0.046755254
23	0xbe4c3128	-0.19940627
24	0xbf241e5b	-0.6410882
25	0xbe273769	-0.16329731
26	0x3e86c9a2	0.2632571
27	0x3c16919f	0.009189992
28	0x3e3d6e48	0.184991
29	0x3f2b2881	0.6685868

fc3.weight f4 [3, 30]
0	0x3ef7e456	0.48416394
1	0x3f20225e	0.6255244
2	0x3f0ebe75	0.55759364
3	0xbecbb956	-0.39789838
4	0xbf24108a	-0.64087737
5	0xbf2f2b20	-0.6842518
6	0x3f199570	0.5999365
7	0x3ef180ca	0.4716857
8	0xbf0cb952	-0.54970276
9	0xbf828c81	-1.0199128
10	0x3f2cbc60	0.6747494
11	0xbf473207	-0.7781071
12	0xbedcdc53	-0.43136844
13	0x3f66bcb2	0.90131676
14	0xbf50929e	-0.8147372
15	0xbf242586	-0.64119756
16	0x3f087ab2	0.5331222
17	0xbf313baf	-0.69231695
18	0x3f87a28c	1.059648
19	0xbf04bff5	-0.51855403
20	0xbf265690	-0.64975834
21	0x3f6a904b	0.91626424
22	0x3f3693c4	0.7131922
23	0x3ec49d70	0.38401365
24	0x3f7030df	0.9382457
25	0x3f1c2574	0.6099465
26	0xbe63d464	-0.2224899
27	0xbebeec0b	-0.37289461
28	0xbf1d87f8	-0.61535597
29	0xbf2b0c16	-0.66815317
30	0x3f88c607	1.0685433
31	0x3f012fb5	0.5046342
32	0x3f7fcaa9	0.9991861
33	0xbf8c7625	-1.0973555
34	0xbf8c05d0	-1.0939274
35	0xbf521dd1	-0.82076746
36	0x3f3f937e	0.7483443
37	0xbfabecb8	-1.3431616
38	0xbf90cb95	-1.1312128
39	0x3f27c2a9	0.655314
40	0x3f9238c7	1.1423577
41	0x3f338ba9	0.7013498
42	0xbf97d977	-1.186324
43	0xbf8e220a	-1.1104138
44	0x3f49a042	0.7876016
45	0x3f0aeb1c	0.54265
46	0xbf7a0192	-0.97658646
47	0x3e9bfbc0	0.30465508
48	0xbfbf812d	-1.4961296
49	0xbf6e4fb9	-0.930904
50	0xbf459aec	-0.7718952
51	0xbf631139	-0.88698155
52	0x3f751b30	0.9574461
53	0x3f8d8d4f	1.1058749
54	0xbf84bef5	-1.0370775
55	0x3f788f23	0.9709341
56	0xbfc5fe52	-1.5468237
57	0xbf87c3f8	-1.060668
58	0xbf2cb90b	-0.67469853
59	0x3f5a9411	0.8538218
60	0xbf9b0c2d	-1.2113091
61	0xbf70946a	-0.9397646
62	0xbf8a9406	-1.0826423
63	0x3f814cb3	1.0101532
64	0x3f9391a5	1.1528822
65	0x3f854bad	1.041372
66	0xbf92f2f0	-1.1480389
67	0x3d8d664f	0.069042794
68	0x3f8c0d1d	1.0941502
69	0x3efa77d9	0.48919562
70	0xbf90ab1e	-1.1302221
71	0x3e87a94a	0.26496345
72	0x3f6974c7	0.91193813
73	0xbf07d823	-0.53064173
74	0x3ecd1f6f	0.40063044
75	0x3f2ec928	0.6827569
76	0xbda92632	-0.08259238
77	0x3f26d855	0.65173846
78	0xbf0263c9	-0.5093351
79	0x3f8118c7	1.0085686
80	0x3f837b8d	1.027208
81	0xbf2e571d	-0.68101674
82	0xbf9a70df	-1.2065696
83	0xbfa7dcb5	-1.311423
84	0xbf27e670	-0.65585995
85	0xbf91ee72	-1.1400893
86	0x3f8c8cce	1.098047
87	0x3f892e22	1.0717204
88	0x3f8b6dca	1.089288
89	0x3eaa34ec	0.332435

fc3.bias f4 [3]
0	0x3ce30955	0.02771441
1	0x3e3252ce	0.174144
2	0xbaecd066	-0.0018067479
